(50000, 197, 197, 3)
_________________________________________________________________
Layer (type)                 Output Shape              Param #   
=================================================================
input_1 (InputLayer)         (None, 197, 197, 3)       0         
_________________________________________________________________
block1_conv1 (Conv2D)        (None, 197, 197, 64)      1792      
_________________________________________________________________
block1_conv2 (Conv2D)        (None, 197, 197, 64)      36928     
_________________________________________________________________
block1_pool (MaxPooling2D)   (None, 98, 98, 64)        0         
_________________________________________________________________
block2_conv1 (Conv2D)        (None, 98, 98, 128)       73856     
_________________________________________________________________
block2_conv2 (Conv2D)        (None, 98, 98, 128)       147584    
_________________________________________________________________
block2_pool (MaxPooling2D)   (None, 49, 49, 128)       0         
_________________________________________________________________
block3_conv1 (Conv2D)        (None, 49, 49, 256)       295168    
_________________________________________________________________
block3_conv2 (Conv2D)        (None, 49, 49, 256)       590080    
_________________________________________________________________
block3_conv3 (Conv2D)        (None, 49, 49, 256)       590080    
_________________________________________________________________
block3_pool (MaxPooling2D)   (None, 24, 24, 256)       0         
_________________________________________________________________
block4_conv1 (Conv2D)        (None, 24, 24, 512)       1180160   
_________________________________________________________________
block4_conv2 (Conv2D)        (None, 24, 24, 512)       2359808   
_________________________________________________________________
block4_conv3 (Conv2D)        (None, 24, 24, 512)       2359808   
_________________________________________________________________
block4_pool (MaxPooling2D)   (None, 12, 12, 512)       0         
_________________________________________________________________
block5_conv1 (Conv2D)        (None, 12, 12, 512)       2359808   
_________________________________________________________________
block5_conv2 (Conv2D)        (None, 12, 12, 512)       2359808   
_________________________________________________________________
block5_conv3 (Conv2D)        (None, 12, 12, 512)       2359808   
_________________________________________________________________
block5_pool (MaxPooling2D)   (None, 6, 6, 512)         0         
=================================================================
Total params: 14,714,688
Trainable params: 14,714,688
Non-trainable params: 0
_________________________________________________________________
ss3
_________________________________________________________________
Layer (type)                 Output Shape              Param #   
=================================================================
image_input (InputLayer)     (None, 197, 197, 3)       0         
_________________________________________________________________
vgg16 (Model)                (None, 6, 6, 512)         14714688  
_________________________________________________________________
flatten (Flatten)            (None, 18432)             0         
_________________________________________________________________
fc1 (Dense)                  (None, 512)               9437696   
_________________________________________________________________
fc2 (Dense)                  (None, 128)               65664     
_________________________________________________________________
predictions (Dense)          (None, 10)                1290      
=================================================================
Total params: 24,219,338
Trainable params: 24,219,338
Non-trainable params: 0
_________________________________________________________________
_________________________________________________________________
Layer (type)                 Output Shape              Param #   
=================================================================
image_input (InputLayer)     (None, 197, 197, 3)       0         
_________________________________________________________________
vgg16 (Model)                (None, 6, 6, 512)         14714688  
_________________________________________________________________
flatten (Flatten)            (None, 18432)             0         
_________________________________________________________________
fc1 (Dense)                  (None, 512)               9437696   
_________________________________________________________________
fc2 (Dense)                  (None, 128)               65664     
_________________________________________________________________
predictions (Dense)          (None, 10)                1290      
=================================================================
Total params: 24,219,338
Trainable params: 24,219,338
Non-trainable params: 0
_________________________________________________________________
None
Not using data augmentation.
Train on 50000 samples, validate on 10000 samples
Epoch 1/200
   32/50000 [..............................] - ETA: 13393s - loss: 2.3909 - acc: 0.062
…
